ppo_critic.pth (torch, 5224 bytes, 3 tensors)

seq.0.weight f4 [128, 4]
00000000: 61c3 bb3d 7d84 2f3d 4d75 81be e726 0dbe
00000010: 7d01 ecbe ea3a ddbe ebb5 b8bd 8ff9 48be
00000020: b084 a1bd c8e2 9bbd 4823 63be 9d2a ea3e
00000030: 2024 d23e a47d 99bc 215e 873e d07e 8b3e
00000040: c33d cb3d 7b30 023e 47bc 62be 6360 003f
00000050: a2b1 96be 4064 12bc 0073 7f3d 6405 173e
00000060: 20c2 f2bc d03b a0bd b01a 80be bc2f b4be
00000070: 89d3 52be 0c1d 803e 96b3 f73e ee51 843e
00000080: d7c2 76bd 8d9d e83e a5ac 333d 5a3c 543d
00000090: 159a de3e 7451 cb3e c383 4c3e 9515 bb3e
000000a0: 3c10 2abe 4844 69be 5a1f cf3e 8056 b5bd
000000b0: fa24 9ebe 7cca d0bc 47e0 b3be 0ca8 9c3e
000000c0: e835 d6be 0310 9d3d 73d8 c8bd d73a 1a3d
000000d0: 4705 94be cbf8 8d3e f1c8 e4be c07c cd3c
000000e0: 689c dbbd 90e6 85be 5e7e 803e f0df 653d
000000f0: b8a3 a13e 72c4 243e e304 d9bd 7e07 ee3e
00000100: 4d84 b33e 6e9d b2be 1b25 c3be ed8b e2bd
00000110: 42bd 8abe e70a cb3e c7f0 3dbd fa6d f53e
00000120: 6321 b33e c612 edbd 0363 98be 6af0 d83e
00000130: 2b0c d3be caa3 d53e e73f 3bbc 8448 bf3e
00000140: 99bb 743e 8099 283e 0cba f2be 2fa8 2a3e
00000150: fdc3 bd3d 5887 79be ec4e 1a3e 9ed8 9cbd
00000160: 70dd 65be 2cf5 32be 90da 253e 20b1 82bd
00000170: 1a0e ed3d d8ec d4bd 6dd1 be3c 3063 8dbe
00000180: fac6 ab3e 599f ad3e 6c18 9dbe 6f21 c23e
00000190: abda 943e 469e b5bc e312 8d3e c73b 27be
000001a0: f800 ac3c 2c86 bbbe 2167 3f3e 49c6 88be
000001b0: 80d9 97be ea23 b6be 00b5 e1bd 2aca dd3e
000001c0: 1dfc f9bd a258 a1bd 7f8b 1ebe b7c7 c7be
000001d0: eee2 863e 3b50 8ebd b1c9 ad3e 8536 09be
000001e0: f53a 593e 2366 67bd b46c a4be 9d30 273b
000001f0: 8efe a03e 4503 01bf 92b0 433e 0d57 a23e
00000200: af22 503e 4128 4a3e 7f2a a33e 0423 483e
00000210: 0cdb bfbe 547f 9abe e0f4 f53e a0f3 2c3d
00000220: ec10 02be 7d82 2c3e 17a6 a73d 2c60 2c3d
00000230: 36fa f1be 8267 fdbe 4803 053e 20eb 88bd
00000240: 3a50 26be 7b07 8dbc 77d3 6dbe 51c2 b9be
00000250: 5d57 ea3e c3fb b63e 8487 ed3e 1029 7c3e
00000260: da48 d03e fd00 893d 4036 8bbd 1623 bc3e
00000270: 4062 abbe 9a9a cabe 3015 ee3e 38b2 7dbe
00000280: 8d5d 923e c450 19be d3be 80be 3fd5 46be
00000290: 0e98 f63e 020c 903e c9a0 babd 4b15 913e
000002a0: 0d13 6ebe 6d51 773e 907e 723d af66 01bf
000002b0: 0cc2 0abe baa1 d6be 58f7 e93e 9c00 0d3e
000002c0: 0306 7cbc f0b6 983e 562d e73a b138 2dbe
000002d0: 24a9 febe 00af 383c b0fe 833d 04c2 633e
000002e0: 373b d5be b7aa 9d3e 385c ee3e 05f3 e13e
000002f0: 80ae dfbe 9821 71be 4c5e e53e 6042 aebe
00000300: e8fb 18be 10a9 b83b f676 803e 98ea bc3d
00000310: e786 523e d6c9 bfbd fd4c ce3e 6b83 cbbe
00000320: a5b5 d0bd a830 723e 802a d53e dec0 d1be
00000330: a11f 8f3e 0289 393e dd20 44be 332e ce3e
00000340: 78fc 8bbe 199b acbe 3f92 f4be 94e3 d0be
00000350: 81b2 b5be 1d0b e6bd d0fb febe c55a c53e
00000360: e3f5 c6bd d9ea d23e ec93 1f3d ceca de3e
00000370: f76b 493e 6046 a13d e73b e23e 0967 f43e
00000380: 8378 b33d 9622 a33e d53c b1be 036a 083e
00000390: f2bb a03e 9a3e c5be 5418 67be 02be ef3e
000003a0: 0329 2ebe f15c 3cbd f13f 53bd b15d cfbd
000003b0: d3bf 723e ab07 1a3e 80a1 cbbe 94f0 e1be
000003c0: aa09 d5be d836 85bd 5088 993e 40f0 3ebc
000003d0: 6910 983e 1d9c c73e 058d dbbe 5d60 7abd
000003e0: 2391 9f3e 35e7 83be 2204 82bd a36f cebe
000003f0: ae19 87be 2075 01be 3275 d63e ae01 883e
0.09168125 0.04285096 -0.25284806 -0.13784371 -0.46094885 -0.4320901 -0.09019073 -0.19626449
-0.07886636 -0.076116145 -0.22181427 0.45735636 0.41043186 -0.018736668 0.26439002 0.27245188
0.099238895 0.12713806 -0.22142135 0.50147074 -0.29432398 -0.008935034 0.062365532 0.1474815
-0.029633582 -0.07823908 -0.2502036 -0.35192668 -0.20588507 0.2502216 0.483792 0.25843757
-0.060244408 0.45432702 0.04386582 0.05181537 0.4347693 0.3971058 0.19972138 0.36539903
-0.16607755 -0.22779953 0.40453607 -0.08854389 -0.30887586 -0.025487177 -0.35132048 0.3059696
-0.41838002 0.076690696 -0.098069094 0.03765377 -0.28910276 0.27728876 -0.44684556 0.0250839
-0.107231915 -0.26152468 0.2509641 0.056121767 0.3157022 0.16090563 -0.10596635 0.4649009
0.35061875 -0.34885734 -0.38114247 -0.11061845 -0.27097517 0.39656755 -0.0463722 0.47935468
0.3498641 -0.115758464 -0.2976304 0.4237092 -0.4122022 0.41726524 -0.01142881 0.37360013
0.23899688 0.16464806 -0.47407568 0.1666572 0.092658974 -0.24368036 0.15069169 -0.07658504
-0.22447753 -0.17476338 0.16196656 -0.0638144 0.11574955 -0.10396737 0.023293221 -0.27614737
0.33550245 0.33910635 -0.30682695 0.37916133 0.2907308 -0.022170197 0.27553472 -0.16331397
0.020996556 -0.36625803 0.18691684 -0.2671378 -0.29658127 -0.35574275 -0.11020851 0.433183
-0.1220629 -0.078782335 -0.15482901 -0.39019558 0.2634501 -0.069488965 0.3394294 -0.13399704
0.21213897 -0.05649389 -0.32114184 0.0025511154 0.3144421 -0.50395614 0.19110325 0.3170704
0.2032573 0.19741918 0.3186836 0.19544607 -0.37471807 -0.3017527 0.48038387 0.042224526
-0.12701768 0.16846652 0.08185976 0.042083904 -0.47261208 -0.49493033 0.12989533 -0.066854715
-0.16241542 -0.017215481 -0.23225199 -0.36281064 0.45769778 0.35738954 0.46392453 0.24625039
0.4068058 0.066896416 -0.06797457 0.36745518 -0.33473396 -0.39571077 0.4650054 -0.24775016
0.28587 -0.14972216 -0.25145587 -0.19417284 0.48162884 0.2813416 -0.091126986 0.28336558
-0.23249455 0.24152155 0.05920273 -0.5054731 -0.13550586 -0.41920263 0.4569652 0.13769764
-0.015382293 0.2982707 0.0017637413 -0.16916157 -0.4973842 0.011272192 0.06445062 0.2224198
-0.4164674 0.30794308 0.46554732 0.44130722 -0.4368782 -0.23547971 0.44798505 -0.34035015
-0.14939845 0.005635388 0.2509076 0.09224433 0.20559274 -0.09364669 0.40293112 -0.397487
-0.10190896 0.23651373 0.41633987 -0.40967458 0.27953818 0.1811867 -0.19153161 0.40269622
-0.27341056 -0.3371208 -0.47767827 -0.40798628 -0.3548775 -0.112325884 -0.49801493 0.38545814
-0.09714868 0.411948 0.03895943 0.43514103 0.19670092 0.07874751 0.44186327 0.4773486
0.0876322 0.31862324 -0.34616724 0.1332169 0.3139339 -0.38524324 -0.22567874 0.46824652
-0.17007832 -0.045987073 -0.05157465 -0.10125292 0.23705988 0.15041988 -0.39771652 -0.4412886
-0.41608936 -0.06504601 0.2998681 -0.01165396 0.2970002 0.38986292 -0.42881027 -0.061127055
0.31165418 -0.25762334 -0.063484445 -0.40319547 -0.2638678 -0.12642336 0.41886288 0.26563781

seq.0.bias f4 [128]
00000000: 6337 9a3e 3052 36bd 200d 00bf a162 4ebd
00000010: a043 213c fe99 a83e 2ae7 733e 4cd5 803d
00000020: aa85 e1be bb14 a8be 0c4a 423e f7e0 b83e
00000030: 8e53 e63e 94a3 2a3e 20c8 3fbd c49a 1dbe
00000040: ebdc f13e c84e 4a3d 54a0 713e a093 64bd
00000050: 68c4 57be 380a 5abe 5a90 c1be 5205 abbd
00000060: a89a 70be afaf 99be 774e 273e 2cd7 bfbe
00000070: 553c 683d 3840 a8bd 672a 18be c91e 8e3e
00000080: b504 72be e016 5e3e 1f6a 9d3e 141d 7a3e
00000090: 5954 b0be 9fbf f83e 0485 1b3e e67b c93e
000000a0: b6c1 8ebd 5b86 b6be 1a5d c0be 84d8 f1be
000000b0: 5037 b4be 64c5 e23e 815c a93e 5cd2 f53e
000000c0: a06e ffbd e0d8 aabe 1992 3f3e eb0b 0dbe
000000d0: ad31 1c3d 31f9 8e3d fc9b 9fbd 4e24 973e
000000e0: fe77 d6be 9461 d1be 1ec9 a83e 156f 453e
000000f0: a009 d13e 1576 a43d 143b 49be 80e9 9abe
00000100: 1d04 b63e 3ad1 903e b7ca a33e de91 77be
00000110: 4e85 febe 7ed3 d4bd 6db9 1fbe 7932 f3bd
00000120: c775 dbbd 8233 89be 4ad2 913e bb14 bfbe
00000130: 9d58 323e 7a61 f0be 7ec9 d2be 7ad1 1f3e
00000140: d94f 3abd 84c5 463e 4f4b 41bb 92d6 2a3e
00000150: 1c8b 0fbe ea13 eb3c c055 6cbe 3ead 5f3d
00000160: a042 e4be c624 f0be add4 9fbe 11ac 0ebb
00000170: e510 7b3e 20db d2be 37a1 e0be c0e7 33be
00000180: 3bdb a83d 7088 633e 1079 e7be 52a2 c93e
00000190: 13ef ee3d b9d1 96be 6b8c bf3e 6c55 29be
000001a0: 91cb 2c3e 3a0c 0cbe 7f8e 9ebb ae7b f2be
000001b0: 6a41 a1be 3fb9 45be ab8f 51bc b405 ae3d
000001c0: e388 32bd dd0f c3be 0540 08bd cf07 b23e
000001d0: b9d7 f53c ebeb f0bd c73f b1bd 2cf9 dd3e
000001e0: b0d8 4d3e bca2 06be aee9 73be 7f22 843e
000001f0: f1e4 df3b 5dc8 6c3e 4015 d63e f6aa 84be
0.30120382 -0.044511974 -0.5002003 -0.05038703 0.009842783 0.32929987 0.23818651 0.06290683
-0.4404729 -0.32828316 0.18973559 0.36109135 0.44985622 0.16663963 -0.046821713 -0.1539107
0.4723886 0.049391538 0.23596317 -0.05580485 -0.21071017 -0.2129296 -0.37805444 -0.08350624
-0.23496497 -0.30016848 0.16338526 -0.3746885 0.056698162 -0.08215374 -0.14859925 0.27757862
-0.23634608 0.21688414 0.30745026 0.24425155 -0.34439352 0.48583695 0.1518746 0.3935234
-0.06970541 -0.3564938 -0.3757103 -0.472355 -0.3519845 0.44291222 0.33078387 0.48012054
-0.12472272 -0.33368587 0.18708076 -0.13774078 0.038133312 0.06981123 -0.077934235 0.29519886
-0.41888422 -0.4089476 0.3296594 0.19280656 0.40827656 0.08030335 -0.19651443 -0.3025627
0.35550013 0.28284627 0.31990597 -0.24176738 -0.49711078 -0.103919014 -0.15598078 -0.11874861
-0.107158236 -0.2679711 0.2848075 -0.37320504 0.17416616 -0.4694937 -0.4116935 0.15607253
-0.045486305 0.19411284 -0.002949435 0.16683415 -0.1401791 0.02869602 -0.23079586 0.054608576
-0.4458208 -0.46903056 -0.31216946 -0.002177004 0.24518164 -0.41182804 -0.43872997 -0.17568874
0.0824494 0.22220016 -0.4520955 0.39381653 0.116666935 -0.2945688 0.37411818 -0.16536492
0.1687453 -0.13676539 -0.004838764 -0.47359985 -0.3149522 -0.19308947 -0.012790601 0.084971815
-0.043587577 -0.3809804 -0.03326418 0.34771582 0.030010091 -0.11763748 -0.08654743 0.43354166
0.20102191 -0.13148016 -0.2381961 0.25807568 0.006832712 0.23123308 0.41813087 -0.25911683

seq.2.weight f4 [1, 128]
00000000: 8f29 503d 8e05 6cbd 3e6c c23c 54f1 853d
00000010: 8be3 343d 054a 36bd a3d1 30bd c7f0 ba3c
00000020: 0d3d 203d 5808 603d ff3a 98bc b003 d539
00000030: ccf7 c5bc 8d90 96bd e320 4d3d 9843 ed3c
00000040: 7a0c 923d ef66 99bd 7d4f 97bd 233c 46bd
00000050: 2d62 073d 4478 753c e8bc 9c3c 6d8b 95bd
00000060: f0fc 5f3c 0db2 18bd a206 bcbb 15ec 18bd
00000070: 6bfd afbd bfa2 5ebd e0f8 da3c 4328 ad3b
00000080: 3ca3 583c 5ba4 7f3d ca42 953d 47fc d3bc
00000090: 9fad 06bd fb2d 863c 04c3 0dbc e351 273d
000000a0: 9970 8fbd e373 7f3d be1e 02bd 09ae 243d
000000b0: acf3 fcbc 1e6f 11bd 0dc6 583d f73d 8ebc
000000c0: 901a f13b 912d 993d 4a26 9fbd ddff 99bd
000000d0: 775b 553d b174 a1bd 8da5 bf3b 1335 8b3d
000000e0: 0af5 113d b454 a43d 53e0 193d f9f4 86bd
000000f0: 62ea 84bd b9a1 11bd 00ef 523d 8c7e ad3d
00000100: 24e3 07bd c00f 7e3d 58e1 9e3b c700 213d
00000110: 7be9 dc3c 7ad8 033d bdd8 92bd ec3b 6abd
00000120: 8d9f b7bd cb1f 833d a8a4 0fbd 70f8 93bd
00000130: 9a54 763d 6888 aabd 599f 92ba 8fc9 38bd
00000140: 8daf 48bb c980 043b 05a2 5a3d d3be 633d
00000150: f700 673d e2f8 8fbd 9a64 f13c 9583 2abd
00000160: 286f 55bc 09f1 6cbd 3f82 cbbb 3152 973d
00000170: cf0e c4bc 42ea d3ba a22f 3abd 867d 88bd
00000180: eb10 edbc 6d4c ca3c 82f8 b5bd d2f1 cb3c
00000190: 42e5 b5bd d225 4fbd c1de 92bd baf3 18bd
000001a0: e87d 05bd 452d 9d3d ead4 873d 8b8b 75bd
000001b0: c829 6abd beb1 8fbd 6a53 643b 0c5e 98bc
000001c0: 7e68 0cbd 1a3b 94bc c7e6 a13d 54ba 8c3c
000001d0: cabb 57bd 0241 41bd 2f1e 91bd 2b7f 2a3d
000001e0: 0272 7b3c d29d aa3d 03e4 58bc aa62 1b3d
000001f0: 2712 903d 61f6 86bd bb5b 01bd 4e5d c6bd
0.050820883 -0.057622485 0.023733255 0.0654017 0.044162314 -0.044504184 -0.043168675 0.02281989
0.039120723 0.054695457 -0.018582819 0.00040629273 -0.02416601 -0.073517896 0.05008019 0.028962895
0.07131286 -0.07490336 -0.07388208 -0.048397195 0.033052612 0.014982287 0.019133046 -0.07301984
0.013671145 -0.037279177 -0.0057380954 -0.03733452 -0.085932575 -0.054354426 0.026730001 0.0052843406
0.013222512 0.0624126 0.0728813 -0.025877131 -0.03288042 0.016379347 -0.008652452 0.040849578
-0.07003898 0.062366378 -0.0317676 0.040205035 -0.03087791 -0.03550636 0.05292325 -0.017363532
0.007357903 0.07479394 -0.07770975 -0.07519505 0.05208918 -0.07883585 0.0058485926 0.067972325
0.035634078 0.08023968 0.037567448 -0.065896936 -0.064900175 -0.03555462 0.05149746 0.084714025
-0.033175603 0.06202674 0.0048486404 0.039307382 0.0269668 0.03218887 -0.07170246 -0.057186052
-0.08965979 0.064025484 -0.035069138 -0.0722512 0.060139276 -0.08326799 -0.0011186405 -0.045114096
-0.0030622215 0.0020218363 0.05337717 0.055601906 0.056397405 -0.070298925 0.029466916 -0.041629393
-0.01302699 -0.057847057 -0.006210595 0.07388724 -0.023932843 -0.0016167837 -0.045455582 -0.06664567
-0.028938731 0.024694646 -0.0888529 0.024895582 -0.08881618 -0.050573178 -0.07171393 -0.03734181
-0.032590777 0.0767465 0.06632407 -0.05994753 -0.057168752 -0.070163235 0.0034839758 -0.018599533
-0.03427934 -0.018094588 0.079053454 0.017178692 -0.052669324 -0.047181137 -0.07085835 0.041625183
0.015347006 0.08330883 -0.013237956 0.03793589 0.07034712 -0.06589962 -0.03158162 -0.09685765
