ppo_actor.pth (torch, 5728 bytes, 4 tensors)

seq.0.weight f4 [128, 4]
0	0xbf018e14	-0.5060742
1	0x3e84d129	0.25940827
2	0xbef80cf4	-0.48447382
3	0x3c86f4a4	0.016474076
4	0xbd2b2fab	-0.041793507
5	0xbe21d18b	-0.1580259
6	0xbe8e4387	-0.27785894
7	0xbe28b26c	-0.16474313
8	0xbeb438e9	-0.3519967
9	0x3eee7539	0.4657381
10	0xbe226573	-0.15859012
11	0x3eca5b20	0.39522648
12	0x3eb16128	0.34644437
13	0xbe98cad5	-0.2984225
14	0x3ec241cf	0.37940833
15	0xbec5cdd1	-0.38633588
16	0x3ed7d24d	0.42152634
17	0x3e6cf619	0.23140754
18	0xbe61baf9	-0.2204398
19	0x3ec856f1	0.3912883
20	0xbdb48d98	-0.08816069
21	0x3ec6d9f4	0.3883816
22	0x3e9894d3	0.29801044
23	0x3de2947c	0.110634774
24	0x3ea79938	0.32734084
25	0xbe7d354c	-0.24727362
26	0x3ed7a922	0.42121226
27	0x3dff3628	0.12461501
28	0xbe70054c	-0.2343952
29	0x3ece13ac	0.40249383
30	0xbc38c821	-0.011278183
31	0x3e579192	0.21051624
32	0x3ddac954	0.106829315
33	0xbe1f8cf5	-0.15581115
34	0xbe4ca2a7	-0.19983922
35	0xbe1e0098	-0.15429914
36	0x3ed9738a	0.42470962
37	0xbddb315d	-0.10702775
38	0x3d24385a	0.040092804
39	0x3eb4d4a8	0.35318494
40	0xbef0a06e	-0.46997398
41	0xbecc7507	-0.39933035
42	0x3e78b12c	0.24286336
43	0xbed56aec	-0.41683137
44	0xbec456ad	-0.38347378
45	0x3e33955d	0.17537446
46	0xbf015c2b	-0.5053126
47	0xbec93b84	-0.3930322
48	0x3ed349e3	0.4126731
49	0x3e750ec9	0.23931421
50	0x3c1a6bfa	0.009425158
51	0xbe1f6362	-0.15565255
52	0x3ea8a7b6	0.32940453
53	0xbeb7c243	-0.35890397
54	0xbedfbff6	-0.43701142
55	0xbee7ceb4	-0.4527489
56	0xbe86f5ed	-0.263595
57	0xbea2da24	-0.31807053
58	0x3eebaf23	0.46032056
59	0xbef9128b	-0.4864696
60	0xbf0124c7	-0.5044674
61	0x3e530b0a	0.2060968
62	0xbea20fb9	-0.3165262
63	0x3defc3fe	0.117073044
64	0x3d96eddf	0.07369589
65	0x3ef7d464	0.4840423
66	0xbe793e4e	-0.24340174
67	0xbe785b24	-0.24253517
68	0x3dcc2a40	0.09968996
69	0xbd42ca42	-0.04755617
70	0x3e60aa94	0.2194007
71	0x3ba6dcf6	0.0050922586
72	0x3ebb6cdb	0.36606488
73	0xbe87dd3a	-0.2653597
74	0x3d83e920	0.064409494
75	0xbefb7dd1	-0.49119428
76	0x3e4d4d6e	0.20049068
77	0xbea1663e	-0.31523317
78	0xbdebf610	-0.11521542
79	0xbee638c8	-0.44965196
80	0x3ee79efa	0.45238477
81	0xbe9d3e13	-0.3071142
82	0x3d342dbc	0.04398893
83	0x3e7ccb6e	0.24686977
84	0x3d0a04c2	0.033695944
85	0x3ee6b0c9	0.4505675
86	0x3e87fea5	0.26561466
87	0xbe250631	-0.16115643
88	0x3e841f48	0.25805116
89	0x3e6cf333	0.23139648
90	0x3ca915a1	0.020640196
91	0xbe916e40	-0.28404427
92	0xbe803ab7	-0.25044796
93	0x3ca6d80e	0.020366695
94	0xbea325d8	-0.3186481
95	0xbe612ad0	-0.21988988
96	0x3bc54fb6	0.006021465
97	0x3e108a71	0.14115311
98	0xbe98aabc	-0.2981776
99	0xbd3704d1	-0.044682328
100	0xbe8bac8a	-0.27280074
101	0x3d069541	0.032857183
102	0x3dafd897	0.08586233
103	0x3c85d9c9	0.0163392
104	0xbe56ab93	-0.20963888
105	0xbdc1855c	-0.094492644
106	0xbcccfdc3	-0.025023347
107	0xbe980cb6	-0.29697198
108	0xbf046c5c	-0.51727843
109	0x3e98da93	0.2985426
110	0xbe8d90b2	-0.27649456
111	0xbedb466f	-0.42827174
112	0x3edb9c0d	0.42892495
113	0x3e36298b	0.17789285
114	0xbe3935ed	-0.18086977
115	0x3ee2e7df	0.4431753
116	0xbedbfc4d	-0.42965928
117	0xbe424adb	-0.18973868
118	0xbe4750e3	-0.1946445
119	0xbe98bd1e	-0.29831785
120	0x3ddfbad9	0.1092431
121	0xbe2c5750	-0.16830182
122	0xbe4f06a2	-0.20217374
123	0xbe7a7bfe	-0.24461362
124	0x3e34861c	0.17629284
125	0xbcf5957a	-0.029978503
126	0x3ef8be25	0.4858257
127	0xbe4e1fa8	-0.20129263
128	0xbecdbaa0	-0.40181446
129	0x3ec07495	0.37588945
130	0xbef2aabd	-0.47395888
131	0xbf01675b	-0.5054833
132	0xbe35f262	-0.17768243
133	0xbeaab5d5	-0.33341852
134	0xbe92a519	-0.28641585
135	0x3e3823c5	0.17982395
136	0xbe5d754e	-0.2162678
137	0x3ef61307	0.48061392
138	0xbd47c155	-0.04876836
139	0x3eb54aa0	0.35408497
140	0xbea76b22	-0.32698923
141	0x3dad4070	0.08459556
142	0x3da3cc38	0.07997936
143	0x3e04a1bc	0.12952322
144	0xbe40991e	-0.1880841
145	0x3e00237d	0.12513538
146	0x3ed126a4	0.40849793
147	0xbeeae1d0	-0.45875406
148	0xbe62df24	-0.22155434
149	0xbe46ba14	-0.1940692
150	0x3e8583da	0.26077157
151	0x3e62eb04	0.22159964
152	0x3f025c0e	0.50921714
153	0xbee15cf9	-0.44016245
154	0x3ee8d714	0.45476592
155	0x3e98784b	0.29779276
156	0xbd019c8c	-0.031643435
157	0x3e3968d1	0.1810639
158	0xbea94e91	-0.33067754
159	0xbeb39195	-0.35072008
160	0x3efb132c	0.49038064
161	0xbd0a2d4c	-0.033734605
162	0xbeb02ae7	-0.34407732
163	0xbee47f9b	-0.44628605
164	0x3efd98c2	0.49530607
165	0x3e7a0df8	0.24419391
166	0xbe4947bb	-0.19656269
167	0xbed36221	-0.41285804
168	0xbdec8887	-0.11549478
169	0x3d5d983b	0.054100256
170	0xbdf650bd	-0.12027118
171	0xbe66c35b	-0.2253546
172	0x3ef23a15	0.47309938
173	0x3e5bed17	0.21477161
174	0xba86627d	-0.001025274
175	0x3e6cc0c7	0.23120414
176	0xbe96bf9b	-0.29443058
177	0x3ed2df0d	0.411858
178	0xbeb7135b	-0.35756955
179	0x3edbf062	0.42956835
180	0x3ef96d97	0.48716423
181	0xbe991c4d	-0.29904404
182	0xbe8fa627	-0.28056452
183	0xbe14348e	-0.14473173
184	0xbddb5223	-0.10709026
185	0xbdea3e15	-0.114376225
186	0x3d51b50f	0.05119806
187	0xbe202077	-0.15637384
188	0xbd09e2fd	-0.03366374
189	0xbe048122	-0.12939885
190	0xbd9bc6ee	-0.07606302
191	0xbe2c37af	-0.16818117
192	0x3da0ded2	0.078549996
193	0x3d06fccc	0.03295593
194	0xbeea8393	-0.45803508
195	0x3e08207a	0.13293639
196	0x3c4be495	0.012444635
197	0xbee07c33	-0.43844756
198	0xbdc8fd4d	-0.09813938
199	0xbed89279	-0.4229925
200	0x3e394bb2	0.18095282
201	0x3e009997	0.1255859
202	0x3d119b2a	0.035548367
203	0xbe1185ae	-0.14211151
204	0xbcac6668	-0.021044925
205	0x3d5f81b1	0.054567043
206	0x3ecb82e3	0.39748296
207	0xbd213ba1	-0.039363507
208	0xbe15925b	-0.14606611
209	0x3e5ea2e9	0.21741833
210	0x3de485ee	0.111583576
211	0xbe28d1e1	-0.16486312
212	0x3e88f4c1	0.26749232
213	0x3ec136b8	0.3773706
214	0xbe20ec42	-0.15715125
215	0x3c43b4d4	0.011944968
216	0xbe90e535	-0.2829987
217	0xbee9cf62	-0.45666033
218	0x3bfc80ed	0.007705799
219	0x3e70e873	0.23526172
220	0x3e6f033f	0.23341082
221	0xbed39387	-0.41323492
222	0x3e53628e	0.20643064
223	0x3e8e4437	0.2778642
224	0xbe10cbf8	-0.14140308
225	0xbe0dbaa8	-0.13840735
226	0xbee4d01a	-0.4469002
227	0xbe5507c7	-0.20803748
228	0x3e2d32f6	0.16913971
229	0x3eae6370	0.3406024
230	0x3e99d9bb	0.30048928
231	0xbe7a91ff	-0.24469756
232	0xbdbd821e	-0.092533335
233	0x3e98f370	0.29873228
234	0xbd4dccbe	-0.050244085
235	0xbda37397	-0.079810314
236	0xbeb443b3	-0.352079
237	0x3cee9b3d	0.029126758
238	0xbecdcabe	-0.40193743
239	0x3e257da0	0.16161203
240	0xbeb92b7b	-0.36165985
241	0x3e920a80	0.28523636
242	0xbf02a6d8	-0.51035833
243	0xbe466007	-0.19372569
244	0xbe876c95	-0.2645003
245	0x3edb6e9c	0.42857826
246	0x3db24211	0.087040074
247	0x3ebe35a7	0.37150308
248	0x3e2397c2	0.1597586
249	0xbeb89875	-0.36053815
250	0xbea8902b	-0.3292249
251	0x3d8a47f8	0.06752008
252	0x3e2a7b62	0.1664863
253	0xbef66e12	-0.48130852
254	0xbf007715	-0.50181705
255	0x3de13645	0.10996679

seq.0.bias f4 [128]
0	0xbd3d1f64	-0.046172515
1	0xbde76524	-0.11298588
2	0xbde22e19	-0.11043949
3	0xbd942ae3	-0.072347425
4	0xbe03eac5	-0.12882526
5	0x3ec3853e	0.38187593
6	0xbeb831ab	-0.35975394
7	0x3e5a8d1a	0.21342888
8	0xbea08bee	-0.31356758
9	0xbeb16827	-0.34649774
10	0xbed7daee	-0.42159218
11	0xbeb37d70	-0.3505664
12	0xbe87e5e2	-0.26542574
13	0xbe048435	-0.12941058
14	0x3f01908d	0.5061119
15	0x3ea7fa63	0.32808217
16	0xbe839258	-0.2569759
17	0x3df5683f	0.11982774
18	0xbeeeef81	-0.46667102
19	0xbe9fce65	-0.31212154
20	0xbd92fe72	-0.07177438
21	0xbeed5d49	-0.46360233
22	0xbebe9666	-0.3722412
23	0x3dfe527a	0.12418075
24	0x3dae5fa6	0.08514337
25	0xbe8c2bdb	-0.2737721
26	0x3d07f242	0.03319002
27	0x3ed454fe	0.41471094
28	0x3e0dd3c3	0.13850312
29	0x3d8daa48	0.06917244
30	0xbeadead2	-0.33968216
31	0xbee93b6c	-0.45553148
32	0x3cf425a5	0.029803107
33	0x3e3a2a0e	0.18180105
34	0x3eedf2fe	0.4647445
35	0xbe976c72	-0.29574925
36	0x3e9926e2	0.29912478
37	0x3eed4234	0.4633957
38	0xbeeb6a9d	-0.45979777
39	0xbee697fa	-0.45037824
40	0x3f00efef	0.5036611
41	0x3e988550	0.2978921
42	0xbec0381e	-0.37542814
43	0xbe8d1a30	-0.27559042
44	0x3e4a9c6f	0.19786237
45	0xbee86d37	-0.45395824
46	0xbe8df2c4	-0.27724278
47	0x3e96a6a3	0.2942401
48	0x3d486f20	0.048934102
49	0x3ea70401	0.32620242
50	0xbe77513a	-0.24152079
51	0x3e90e0f8	0.28296638
52	0x3ec844cf	0.39114997
53	0xbea3782e	-0.31927627
54	0xbe249e73	-0.16076069
55	0x3e9b516e	0.30335563
56	0x3ece6550	0.4031167
57	0xbe9d0c9b	-0.3067368
58	0xbc894632	-0.016757105
59	0x3df8c504	0.12146953
60	0xbda4d97a	-0.08049293
61	0xbeec6b1c	-0.46175468
62	0xbe44f1f9	-0.1923293
63	0x3f01992b	0.5062434
64	0x3eb76304	0.3581773
65	0x3efb0bc3	0.4903241
66	0x3d890d21	0.06691957
67	0xbe7fc898	-0.24978864
68	0xbe959038	-0.29211593
69	0x3de26cb3	0.11055889
70	0xbe910f79	-0.28332117
71	0xbe89e9ed	-0.26936284
72	0x3ebcc13f	0.36866185
73	0x3eb47a0d	0.35249367
74	0xbe2d784a	-0.16940418
75	0x3ee3ab77	0.44466755
76	0x3e73e767	0.23818742
77	0x3e88187b	0.26581177
78	0xbebbaeec	-0.36656892
79	0xbee1befe	-0.44091028
80	0xbdba904b	-0.09109553
81	0xbea7e706	-0.32793444
82	0xbedb9c36	-0.42892617
83	0x3da0a8ac	0.078446716
84	0xbefcecb2	-0.49399334
85	0xbe8d491d	-0.27594844
86	0x3e58ea44	0.21183115
87	0x3e985f50	0.29760218
88	0x3ef93404	0.48672497
89	0xbe941f66	-0.28930205
90	0xbe7dabf0	-0.2477262
91	0x3edad41a	0.42739946
92	0xbefb6bc6	-0.49105662
93	0x3ea4462e	0.32084793
94	0x3e7ffa03	0.24997716
95	0x3e2e8add	0.1704516
96	0x3e1c50a7	0.15265141
97	0x3ee5abbe	0.4485759
98	0xbe888022	-0.26660258
99	0x3daac58f	0.083384626
100	0xbef62b0a	-0.4807971
101	0xbee173f7	-0.44033787
102	0xbc965e5b	-0.018355539
103	0x3ee8140c	0.45327795
104	0x3e0ecfad	0.1394641
105	0x3ecf9ac5	0.40547767
106	0x3ea2b076	0.31775254
107	0xbe0b1da2	-0.13585523
108	0x3e8e21b7	0.27760097
109	0x3e9b7c3d	0.30368224
110	0x3eb88673	0.36040077
111	0xbdf7a937	-0.12092822
112	0x3d9d5559	0.076822944
113	0x3df9410a	0.12170608
114	0x3efcbfda	0.4936512
115	0xbe0813f9	-0.13288869
116	0xbf003c33	-0.50091857
117	0x3e977fda	0.2958973
118	0xbedea13b	-0.43482384
119	0x3eb5c246	0.3549978
120	0xbe806984	-0.25080502
121	0xbd998747	-0.07496505
122	0x3c946f63	0.01811952
123	0x3eebcafe	0.46053308
124	0xbeaa2b5b	-0.33236203
125	0xbeaa5ea5	-0.33275333
126	0x3e67627e	0.22596166
127	0x3e9b05b7	0.30277798

seq.2.weight f4 [2, 128]
0	0x3d9ba403	0.07599642
1	0xbd73cfd7	-0.059524383
2	0x3db01a24	0.08598736
3	0x3d8e88cd	0.069596864
4	0xbd4d1ff3	-0.050079297
5	0x3d7fabe6	0.062419794
6	0x3d94d8c1	0.07267905
7	0xbd1c91c2	-0.038224943
8	0x3d0c3e4f	0.03423911
9	0x3d1e611b	0.038666826
10	0xbcf277ee	-0.029598203
11	0xbab5262f	-0.0013820584
12	0xbc814359	-0.015779184
13	0xbd9a4bc5	-0.07533983
14	0xbd20c466	-0.0392498
15	0xbd879c19	-0.0662157
16	0xbd7a6fab	-0.06114165
17	0xbc835b7b	-0.016034832
18	0xbdbee031	-0.09320105
19	0xbd0ef924	-0.034905568
20	0x3c8291bf	0.015938638
21	0x3cc5384a	0.024074692
22	0xbcce5b54	-0.025190033
23	0xbdb233fb	-0.08701321
24	0x3d119730	0.035544574
25	0xbd2b4926	-0.041817807
26	0xbb9dd908	-0.004817132
27	0x3caf305b	0.021385362
28	0x3d1ad9ff	0.037805554
29	0xbc8bdb56	-0.017072361
30	0x3c9e8585	0.019350776
31	0xbd995016	-0.07485978
32	0xbcc0511b	-0.023476174
33	0xbd79c284	-0.06097652
34	0xbd882e3e	-0.06649445
35	0xbc8bef3f	-0.017081855
36	0xbd5386e9	-0.051642332
37	0x3d960039	0.07324261
38	0x3cdb7651	0.026789816
39	0x3dab00f1	0.08349789
40	0xbd0c382f	-0.03423327
41	0xbdbf588f	-0.09343063
42	0xbd6870a9	-0.056748066
43	0xbc91c543	-0.017794257
44	0xbd8afab8	-0.06786102
45	0x3b588f30	0.003304433
46	0x3d47305d	0.048630107
47	0xbd0230b1	-0.031784717
48	0x3da1e3d3	0.07904782
49	0x3cca0b12	0.024663482
50	0xbcc362f3	-0.023850894
51	0x3cc50047	0.024047984
52	0xbd00fb8b	-0.03148989
53	0xbd691608	-0.056905776
54	0xbcddc156	-0.027069729
55	0x3d825e15	0.06365601
56	0x3c4732e8	0.012158133
57	0x3cabf922	0.02099282
58	0x36d178a8	6.2427316e-06
59	0xbdb4658c	-0.08808431
60	0xbcb2dffe	-0.021835323
61	0x3cf3f2f2	0.029778931
62	0x3b7830e7	0.0037870945
63	0x3c99f3d0	0.018793017
64	0xbd83fcbb	-0.06444689
65	0x3d4ce6b4	0.050024703
66	0xbdb5c1e8	-0.08874875
67	0xbd131ace	-0.035914235
68	0xbd5622e8	-0.052279383
69	0x3d798f40	0.06092763
70	0xbd9e2703	-0.07722285
71	0x3d96bbae	0.07360016
72	0xbd22d65f	-0.03975522
73	0xbd70427c	-0.058657154
74	0xbda6754f	-0.081278436
75	0xbd26b0bc	-0.04069589
76	0xbc4020b6	-0.011726549
77	0xbd6d0e03	-0.05787469
78	0x3d115cfc	0.035489067
79	0xbc686d66	-0.014186239
80	0x3da8594d	0.08220158
81	0xbd158c68	-0.036510855
82	0xbdb0155a	-0.085978225
83	0x3cfbec63	0.030752366
84	0xbc8f7364	-0.017511077
85	0x3d070a1e	0.032968633
86	0xbd37b4e6	-0.044850253
87	0x3b693835	0.003558648
88	0x3aa2139c	0.0012365463
89	0x3d16d1e2	0.036821254
90	0xbd72fb40	-0.059321642
91	0xbd293408	-0.041309386
92	0xbd2c5fa9	-0.042083416
93	0xbd6c4a1d	-0.057687867
94	0x3d85b3bc	0.06528422
95	0xbc97712c	-0.018486582
96	0x3d75eeee	0.060042314
97	0xbd804c6f	-0.062645786
98	0x3976d310	0.00023539015
99	0x3d0f714a	0.03502015
100	0x3ca5816b	0.020203313
101	0x3da061bf	0.078311436
102	0xbd2837de	-0.041068904
103	0xbc7513ba	-0.014958316
104	0x3d8f8029	0.070068665
105	0x3d5cecf4	0.053936914
106	0xbd0be33f	-0.034152266
107	0x3d91f8f9	0.07127566
108	0x3c7d44fa	0.01545834
109	0xbd02e73b	-0.0319588
110	0x3c14fe39	0.0090938145
111	0x398f2b1e	0.0002730721
112	0xbc0330f7	-0.00800728
113	0xbd6d30df	-0.057907935
114	0x3c996005	0.018722543
115	0x3d6dbebc	0.058043227
116	0xbda96245	-0.082706966
117	0x3d79de62	0.061003096
118	0xbd9eeca3	-0.077599786
119	0xbc889bc7	-0.016675843
120	0xbdc2b635	-0.095074095
121	0xbd9e0979	-0.077166505
122	0xbd9adee4	-0.07562044
123	0xbd8cb9c2	-0.06871368
124	0x3c9443a5	0.018098662
125	0x3ba725af	0.005100928
126	0x3d9112bc	0.070836514
127	0xbd93ddf5	-0.07220069
128	0xbd598281	-0.053102974
129	0xbb4acf34	-0.0030946257
130	0xbcff20ed	-0.03114363
131	0x3d092198	0.033479303
132	0xbda057dc	-0.07829258
133	0xbda4583e	-0.08024643
134	0xbba0b31c	-0.004904164
135	0xbd36264e	-0.044470124
136	0x3dac254a	0.0840555
137	0xbdca549d	-0.0987942
138	0x3d38c6ab	0.04511134
139	0x3dbcc258	0.09216756
140	0x3d7cdf1f	0.061736222
141	0xbd395c23	-0.045253884
142	0x3dd73e7f	0.10509967
143	0xbc904ae8	-0.017613843
144	0xbd76df38	-0.06027147
145	0x3c3c5fcf	0.011497452
146	0x3d470dd8	0.048597187
147	0x3dbf1e3c	0.093319386
148	0xbda1c6de	-0.07899259
149	0xbd8f4042	-0.06994678
150	0xbd400153	-0.046876263
151	0xbd466d0e	-0.048443846
152	0x3d812266	0.06305389
153	0xbcf871db	-0.030327728
154	0xbd4f75bd	-0.050649393
155	0xbd919e41	-0.07110263
156	0xbd8244c1	-0.0636077
157	0xbd56c580	-0.052434444
158	0x3d66dc45	0.05636241
159	0xbc33d153	-0.0109752
160	0x3da7493e	0.08168267
161	0xbdc2b096	-0.09506337
162	0xbd1787e3	-0.036994826
163	0xbd4b5709	-0.04964355
164	0x3cac6f3c	0.021049134
165	0xbd8cdaed	-0.06877694
166	0xbd50cbe7	-0.050975706
167	0x3db6e0a0	0.089295626
168	0x3d3336a9	0.0437533
169	0x3dbcb1bc	0.09213588
170	0x3d738ee4	0.059462443
171	0x3d6264b0	0.055271804
172	0x3d6b2bb5	0.05741473
173	0x3dc70111	0.09717
174	0xbd05d48d	-0.032673407
175	0x3b0ebcc8	0.0021780003
176	0x3cc0461c	0.02347093
177	0xbb96dc0b	-0.004603868
178	0xbda03e07	-0.07824331
179	0xbd8dd915	-0.06926171
180	0xbcba945c	-0.022775821
181	0xbcb6e8e7	-0.022327853
182	0x3ae18eb0	0.0017208662
183	0xbdb97e96	-0.090573475
184	0xbc4631f9	-0.012096875
185	0x3cb72194	0.022354878
186	0xbd8fe767	-0.07026558
187	0x3a1a21ef	0.000587969
188	0x3d5fb6f4	0.054617837
189	0x3d180be2	0.037120707
190	0xbd2d6eea	-0.042342104
191	0x3d758355	0.0599397
192	0xbd47490e	-0.048653655
193	0x3d49b286	0.04924252
194	0x3c72ba87	0.014814979
195	0xbc467e32	-0.012115048
196	0xbc442b4e	-0.011973215
197	0x3d93c416	0.07215135
198	0x3d119a80	0.035547733
199	0xbd8458fd	-0.06462286
200	0x3b325bce	0.0027215364
201	0x3bda72dd	0.006666525
202	0x3d7b7d95	0.06139906
203	0x3cba611f	0.02275139
204	0xbd7008c5	-0.058602113
205	0x3ceab0ab	0.028648695
206	0xbdd77b93	-0.10521617
207	0xbda71c18	-0.08159655
208	0x3ca874f5	0.020563582
209	0xbaf4f4bd	-0.001868866
210	0xbca8f3d4	-0.020624079
211	0x3d1d16a5	0.038351674
212	0xbd4a3b4b	-0.049372952
213	0xbddd3823	-0.10801723
214	0x3d9aa2cf	0.075505845
215	0xbc97b5db	-0.018519333
216	0xbd6c6d93	-0.057721686
217	0x3ce0ae6b	0.027426919
218	0xbd9adbf7	-0.07561486
219	0x3cbc8599	0.023012923
220	0x3b9c1ff0	0.0047645494
221	0xbd5bd40e	-0.053669028
222	0xbd0cd728	-0.034384876
223	0x3ca63c5f	0.020292459
224	0xbb7d997a	-0.0038696215
225	0xbd7e7630	-0.06212443
226	0xbd81d793	-0.06339946
227	0x3cc39bff	0.023878096
228	0x3d8d4fee	0.06900011
229	0xbd67ea8a	-0.05662016
230	0xb941704f	-0.00018447753
231	0x3d3bccab	0.045849483
232	0x3da84520	0.082163095
233	0xbc639084	-0.013889436
234	0xbd9bc3cf	-0.07605707
235	0x3cf1db68	0.029523566
236	0xbd1ed2ba	-0.038775183
237	0xbd30fd93	-0.043210577
238	0xbd6c52d2	-0.05769617
239	0xbdb52f3f	-0.08846902
240	0xbc239993	-0.009985345
241	0xbdcc5f45	-0.09979109
242	0x3d1a1b12	0.037623473
243	0x3d39efdd	0.045394767
244	0xbce70990	-0.028202802
245	0xbdc43231	-0.09579886
246	0x3c8a8cd5	0.016912857
247	0x3c851f27	0.016250206
248	0xbcdaa4e0	-0.026689947
249	0x3cc58014	0.024108924
250	0x3d4b06ff	0.04956722
251	0xbd68b8b1	-0.05681676
252	0xbd520ff2	-0.051284738
253	0x3cbe5471	0.023233624
254	0xbd627ef6	-0.05529686
255	0xbdbba464	-0.091622144

seq.2.bias f4 [2]
0	0x3c9a1740	0.018809915
1	0x3db889f4	0.090106875
