Golf2D/weights/actor.pth (torch, 5504 bytes, 4 tensors)

seq.0.weight f4 [128, 4]
-0.08434988 0.49511757 -0.0012404711 -0.18852346 0.36421812 0.107973285 0.2063247 0.11400531
0.47099432 0.3035244 0.03786077 -0.19797587 -0.45654565 -0.18355806 0.3143237 0.19832319
-0.36864468 -0.047283933 0.30291054 0.27596873 -0.048339013 -0.38469067 0.20557778 0.49338526
-0.41575167 0.38581392 0.38336858 0.09219917 -0.04467154 0.0822821 0.08563494 -0.39697367
0.36324403 0.16272846 -0.28666162 -0.15878923 -0.3818365 0.30669367 0.29865533 0.21027158
0.33165044 -0.4271043 -0.365957 -0.36807466 0.17962779 0.029816957 -0.309669 0.47509706
-0.48061904 -0.42637482 -0.001098048 -0.07750146 -0.28317082 0.20193781 0.11346473 -0.47876966
0.3580057 -0.26609245 -0.19548021 0.06601757 0.11846942 -0.41270074 0.499137 0.048256524
-0.33883408 0.2211278 -0.061946895 0.43900645 -0.48129833 0.16253138 0.16226222 -0.40016893
-0.27568296 0.44987932 0.47076315 0.06641135 0.24115647 -0.055963945 -0.4436102 -0.15291014
-0.3642577 -0.46372825 0.41989005 -0.012283965 0.26310593 0.03871898 0.35915574 -0.37289724
0.49987888 0.046258114 0.4893467 0.2656681 0.33829823 -0.3466579 0.07428682 -0.429458
0.4137645 0.34425667 -0.17962874 -0.15837209 0.2394435 0.26702645 0.32112083 0.20972103
-0.26596183 0.33585504 -0.13110149 0.004308027 0.010083352 -0.41043955 -0.1225127 -0.4192611
-0.044573665 -0.167865 0.44270936 0.24791218 0.31166726 0.4245811 -0.08525691 0.4694028
-0.36062342 0.4142514 0.26713184 -0.059603505 -0.35301435 -0.036598112 0.04038239 0.17379797
-0.33666155 -0.21467431 -0.23805693 0.14595862 0.32228214 0.055029552 -0.4382005 0.17961308
-0.18813579 -0.06009473 0.16920559 0.37282315 0.3871744 -0.2469288 0.3272296 0.47436234
-0.31185558 0.17416972 0.395941 -0.28865844 0.34075534 0.030565007 0.054001544 -0.3452728
-0.38151446 0.48856598 -0.46138898 -0.019174026 0.3715762 0.20877673 -0.40553963 0.44278938
0.3188487 0.12699328 -0.3822799 -0.34363642 -0.36286288 -0.124095805 0.4939106 0.4869896
-0.4801956 0.27566972 0.10883122 0.40897918 0.45758742 -0.20207173 0.341289 0.16410299
-0.16745111 0.022265326 0.07146249 0.46987057 0.2179394 0.4996143 0.36085138 -0.46444568
-0.43640548 0.43043035 -0.19511744 0.14549905 -0.028052885 0.1312094 -0.072961204 -0.20276591
0.4716468 -0.4796337 -0.087230615 0.25556532 0.401271 -0.18770462 0.09860787 0.27013668
0.22698082 -0.47135365 -0.36440682 0.39039236 -0.460204 -0.32838434 -0.40933362 0.33870396
-0.42746463 -0.4414528 -0.09006934 -0.46619487 0.34343672 0.17459057 -0.078240365 0.36027962
0.37590304 0.07639446 -0.23978646 0.46911982 -0.3124015 0.25198853 -0.13332263 -0.24785843
-0.30810928 -0.19438574 -0.19081661 -0.39560917 0.24872318 0.23288505 -0.11826354 0.48300853
-0.11515036 0.11324791 -0.44065934 0.2217704 -0.42430696 0.18238612 -0.2842506 0.00524957
-0.47256908 0.19786538 0.42327276 -0.45045215 0.4569294 0.21331237 -0.26620054 -0.2986232
0.018113544 0.020812552 -0.1204374 -0.013681978 -0.392289 -0.27275977 -0.12264621 0.1867468
00000000: a1bf acbd 0d80 fd3e 4e97 a2ba 4b0c 41be
00000010: cc7a ba3e 1921 dd3d c846 533e 9e7b e93d
00000020: 2b26 f13e 8d67 9b3e e513 1b3d 30ba 4abe
00000030: 5ac0 e9be a5f6 3bbe 09ef a03e 3c15 4b3e
00000040: ffbe bcbe ccac 41bd 1717 9b3e c64b 8d3e
00000050: 21ff 45bd 2df6 c4be fb82 523e fe9c fc3e
00000060: 67dd d4be 6789 c53e e348 c43e ebd2 bc3d
00000070: 81f9 36bd 8583 a83d 5f61 af3d 2240 cbbe
00000080: 1ffb b93e 4aa2 263e 50c5 92be a599 22be
00000090: 1380 c3be f406 9d3e 5ae9 983e 6f51 573e
000000a0: 16ce a93e 6aad dabe b75e bbbe 4874 bcbe
000000b0: 59f0 373e b142 f43c ef8c 9ebe ec3f f33e
000000c0: b313 f6be cd4d dabe 60ec 8fba 16b9 9ebd
000000d0: c4fb 90be c9c8 4e3e 3260 e83d 4c21 f5be
000000e0: 864c b73e 453d 88be f72b 48be 3834 873d
000000f0: 18a0 f23d 834d d3be e38e ff3e a2a8 453d
00000100: a97b adbe 536f 623e 07bc 7dbd 74c5 e03e
00000110: bc6c f6be a06e 263e 1128 263e f1e2 ccbe
00000120: 5126 8dbe 9556 e63e de07 f13e ad02 883d
00000130: b9f1 763e 733a 65bd e020 e3be 7a94 1cbe
00000140: fc7f babe ca6d edbe d4fb d63e af42 49bc
00000150: d2b5 863e cb97 1e3d 43e3 b73e 63ec bebe
00000160: 20f0 ff3e 2679 3d3d a78b fa3e a605 883e
00000170: 6d35 ad3e 257d b1be b023 983d ebe1 dbbe
00000180: f1d8 d33e 6942 b03e 99f0 37be 4b2c 22be
00000190: ad30 753e b1b7 883e f369 a43e 1cc1 563e
000001a0: 262c 88be 31f5 ab3e 783f 06be 5a2a 8d3b
000001b0: a534 253c 2225 d2be f0e7 fabd 64a9 d6be
000001c0: e092 36bd cde4 2bbe cdaa e23e b1dc 7d3e
000001d0: da92 9f3e b262 d93e 2d9b aebd 9055 f03e
000001e0: a2a3 b8be c218 d43e 81c5 883e ce22 74bd
000001f0: 4cbe b4be e7e7 15bd 0168 253d 18f8 313e
00000200: e75e acbe 95d3 5bbe 32c5 73be 2d76 153e
00000210: 2a02 a53e ab66 613d d15b e0be 7eec 373e
00000220: aba6 40be e425 76bd 3b44 2d3e ade2 be3e
00000230: b93b c63e e7da 7cbe a38a a73e 9fdf f23e
00000240: 89ab 9fbe 8c59 323e c7b8 ca3e 0acb 93be
00000250: 7c77 ae3e 7763 fa3c b930 5d3d 99c7 b0be
00000260: dd55 c3be 5225 fa3e 2d3b ecbe d912 9dbc
00000270: 3c3f be3e 91c9 553e e4a2 cfbe 4ab5 e23e
00000280: 2340 a33e 870a 023e 31ba c3be 1df1 afbe
00000290: 2ac9 b9be f125 febd dae1 fc3e b356 f93e
000002a0: 33dc f5be 9524 8d3e e7e2 de3d b865 d13e
000002b0: e648 ea3e e4eb 4ebe 6fbd ae3e 9d0a 283e
000002c0: 4e78 2bbe c665 b63c ed5a 923d e092 f03e
000002d0: 822b 5f3e 72cd ff3e 83c1 b83e d3cb edbe
000002e0: 8a70 dfbe 5e61 dc3e decc 47be b4fd 143e
000002f0: 2acf e5bc c25b 063e af6c 95bd dea1 4fbe
00000300: b07b f13e 8c92 f5be f7a5 b2bd 75d9 823e
00000310: 6473 cd3e a435 40be ecf2 c93d 5b4f 8a3e
00000320: a96d 683e 4455 f1be 8893 babe 82e1 c73e
00000330: dc9f ebbe fe21 a8be 2d94 d1be 9b6a ad3e
00000340: a5dc dabe 1a06 e2be 4676 b8bd 18b1 eebe
00000350: f0d6 af3e dfc7 323e 7c3c a0bd 9276 b83e
00000360: 5d76 c03e b374 9c3d 958a 75be 7930 f03e
00000370: 17f3 9fbe a404 813e ba85 08be 9ace 7dbe
00000380: 80c0 9dbe 0e0d 47be 6e65 43be 498d cabe
00000390: 4ab1 7e3e 6b79 6e3e 2834 f2bd e54c f73e
000003a0: f4d3 ebbd 85ee e73d 1a9e e1be c817 633e
000003b0: c33e d9be 6dc3 3a3e 4b89 91be 9604 ac3b
000003c0: 93f4 f1be 399d 4a3e 35b7 d83e aaa1 e6be
000003d0: a6f2 e93e 8f6e 5a3e 704b 88be 24e5 98be
000003e0: db62 943c 167f aa3c e2a7 f6bd 602a 60bc
000003f0: 1bda c8be 2ba7 8bbe f02d fbbd 8e3a 3f3e

seq.0.bias f4 [128]
0.22022215 0.20502035 -0.24666815 0.47727084 -0.19760366 0.44973516 0.0842902 0.036120765
-0.14190716 0.42893106 -0.49337307 -0.47407457 0.48216182 0.33833274 -0.30213815 -0.45837775
0.2350354 -0.29692766 0.08493998 0.37809533 -0.24853544 -0.47510278 0.32563028 0.4043979
0.1616411 0.2942609 -0.023814274 0.2696128 0.12919599 -0.40965745 0.30214345 0.1480155
-0.456562 -0.034627102 -0.42851517 0.3778273 0.15633246 -0.057556454 -0.41093925 -0.089344315
0.1616138 0.48472685 -0.0091223465 0.015183645 0.18743348 0.0992464 0.08593363 0.022727367
-0.41576737 0.22860433 0.49521303 0.16528764 -0.13447669 -0.1826775 0.0307223 -0.36973798
-0.37502095 0.2341282 -0.4648379 0.2763299 -0.094869584 0.3502401 0.011520879 0.4399084
0.22220306 -0.3695032 0.018988047 0.18373656 0.39733782 0.14606665 0.4917781 -0.124724716
0.17113294 -0.098286495 0.43919757 0.032533318 -0.40189677 0.056990556 -0.096010126 0.36988077
0.25743034 0.3419737 -0.38862678 0.28601184 -0.4446889 -0.39066184 -0.2449978 -0.43481117
-0.4562592 0.40940645 0.21767461 0.46827638 0.19750781 -0.05843868 0.16624422 0.3737413
-0.35032874 0.14479184 0.30860993 0.039798472 -0.43987292 0.28690448 0.32459694 -0.43467417
-0.16973439 -0.31760678 -0.27587408 0.16871566 -0.3735754 -0.23411945 0.0853518 0.36237708
-0.31043622 -0.4179531 0.40388525 0.032123037 0.29864106 -0.048384793 0.22820039 0.2439859
0.055150446 0.14815427 -0.40026784 -0.44803968 -0.039342098 0.40674314 -0.009276547 0.10840408
00000000: ea81 613e dbf0 513e 9396 7cbe d85c f43e
00000010: 9d58 4abe b043 e63e 57a0 ac3d 5ef3 133d
00000020: 1c50 11be da9c db3e 659b fcbe e7b9 f2be
00000030: eadd f63e f339 ad3e dab1 9abe 7db0 eabe
00000040: 1fad 703e e706 98be 03f5 ad3d b695 c13e
00000050: 1380 7ebe ac40 f3be 03b9 a63e 3e0d cf3e
00000060: 3f85 253e 5da9 963e 2716 c3bc b00a 8a3e
00000070: f44b 043e 9fbe d1be 8cb2 9a3e 6091 173e
00000080: 7fc2 e9be 26d5 0dbd 5766 dbbe 9472 c13e
00000090: 9e15 203e 51c0 6bbd a166 d2be 27fa b6bd
000000a0: 177e 253e 1e2e f83e e575 15bc d3c4 783c
000000b0: 90ee 3f3e b241 cb3d f9fd af3d be2e ba3c
000000c0: 76df d4be 4117 6a3e 908c fd3e 2a41 293e
000000d0: 42b4 09be d00f 3bbe 55ad fb3c 4c4e bdbe
000000e0: bf02 c0be 4ebf 6f3e 3cff edbe 1d7b 8d3e
000000f0: fc4a c2bd ac52 b33e 12c2 3c3c ac3b e13e
00000100: 3389 633e 862f bdbe d28c 9b3c 7025 3c3e
00000110: dd6f cb3e 7f92 153e 57ca fb3e ac6f ffbd
00000120: 793d 2f3e 6e4a c9bd 81de e03e a841 053d
00000130: 6ac5 cdbe ee6e 693d f5a0 c4bd 0361 bd3e
00000140: e9cd 833e 2d17 af3e 17fa c6be 2570 923e
00000150: 43ae e3be d404 c8be b4e0 7abe 929f debe
00000160: ce9a e9be b99d d13e 18e6 5e3e ecc1 ef3e
00000170: 7d3f 4a3e 665d 6fbd ed3b 2a3e 055b bf3e
00000180: 4a5e b3be 5044 143e 1f02 9e3e b903 233d
00000190: 0637 e1be 25e5 923e 9231 a63e 9d8d debe
000001a0: dace 2dbe 5b9d a2be 5e3f 8dbe ccc3 2c3e
000001b0: 4645 bfbe 02bd 6fbe edcc ae3d 7d89 b93e
000001c0: 7ff1 9ebe f3fd d5be 0cca ce3e 7293 033d
000001d0: 7be7 983e 222f 46bd 5dad 693e 71d7 793e
000001e0: 6fe5 613d c1b5 173e e8ef ccbe 7565 e5be
000001f0: 2e25 21bd a340 d03e a8fc 17bc f502 de3d

seq.2.weight f4 [2, 128]
0.060952406 0.0053289393 -0.03327235 -0.0908103 -0.03501521 -0.06062018 0.00034298724 0.0616556
-0.0033843329 -0.06704688 0.019519873 0.076312445 0.050621342 -0.012855276 0.07677696 0.08856057
-0.0015006145 -0.026051767 0.08992925 0.08100852 -0.0034080537 0.031888828 -0.0072722267 -0.044629633
-0.06600412 0.0034980015 0.03326783 0.04848459 0.041327745 0.04901681 0.062880255 -0.013679637
-0.026775977 -0.0030053281 -0.020812767 -0.08490423 -0.005547924 -0.008197848 -0.0101247085 0.04476089
0.01009473 0.063298464 -0.08395814 -0.016022937 -0.019835822 -0.006885485 -0.08265062 0.0153719075
0.059230153 -0.019006772 -0.019838799 0.05099069 0.08166889 -0.061808936 -0.06731364 -0.0007172215
0.05081737 0.029671581 0.061278947 0.03335503 0.014767203 -0.028775558 -0.025627881 0.007799904
-0.06286917 0.061129503 -0.013525871 -0.07245035 -0.054849062 0.03728486 0.0081129875 0.054669853
0.029824892 0.009133455 0.0047262697 -0.08649681 0.0017414509 0.057789683 0.0360863 -0.034583874
-0.008243508 -0.03337442 -0.005447807 0.020450821 -0.037815847 -0.010093182 -0.0044067996 0.050322264
0.07649298 -0.012557383 0.07040749 0.060714558 -0.0027629228 -0.009935693 -0.028222749 0.03739808
-0.030709019 -0.050573297 -0.07644002 0.059469823 -0.023218626 -0.07071404 0.03755772 0.022482412
-0.07521884 -0.08257422 -0.080889694 0.05645283 -0.009573197 -0.03869128 -0.052754216 -0.048432082
0.0358881 -0.050132316 -0.058855817 0.030918723 0.09016541 -0.059672974 0.08268198 -0.028631931
0.03822212 0.071754806 -0.027576042 -0.039673936 0.0078885285 0.0060554137 0.057483964 -0.051797196
-0.082495876 0.0018355253 -0.06323106 0.04235421 0.02694879 -0.031749908 0.029114569 0.00067753624
0.019529711 0.042798165 0.017128188 -0.084808245 -0.06680341 0.032363735 0.0338812 -0.0852643
0.021431427 -0.014099366 -0.077904366 -0.0035282725 -0.013173787 0.038847566 0.04791468 0.024345543
-0.06651881 -0.026556142 0.06293586 0.08421208 -0.08174436 -0.06701136 0.014222047 -0.039052583
-0.03298866 -0.018677428 -0.034111902 -0.024912555 -0.00029719312 0.020775758 -0.08126425 0.0105279675
-0.02758732 0.014853101 -0.033567566 0.08604596 -0.07837397 0.034773044 0.008518589 0.050234172
-0.08838279 -0.0053696986 0.07420193 0.051856827 0.008590186 -0.010363538 0.07969447 -0.029126033
-0.07893726 0.010759188 0.08648665 -0.02585204 -0.04175437 0.012867936 -0.014481406 0.040027868
-0.07731482 0.065999426 -0.010674202 0.062414914 -0.0683609 -0.038950868 -0.07759078 -0.045141608
-0.02360433 -0.050732028 -0.015014853 0.087523445 0.059709903 0.032023482 0.0806613 -0.05034287
-0.020502396 0.038132552 -0.029912375 0.05626219 0.005946844 0.07530261 0.08101604 0.023619825
-0.07446807 -0.037098765 -0.003512841 -0.08057957 0.035068166 -0.014769034 0.028233334 0.0498675
0.07327782 -0.05855351 -0.014271303 -0.03959331 -0.022468312 0.04247379 0.016386664 0.024195416
0.032783452 -0.07054473 0.044144597 0.08459506 -0.035142154 0.028907916 0.039804604 0.069912516
0.08037092 -0.07671463 -0.018806143 -0.0707698 0.089810625 0.085715525 -0.060545668 0.019956183
0.07587348 -0.024786178 -0.07873769 -0.061563678 0.06247746 0.057905562 -0.060002558 -0.047645725
00000000: 3ba9 793d 629e ae3b 9648 08bd c0fa b9bd
00000010: 1c6c 0fbd de4c 78bd f8d2 b339 958a 7c3d
00000020: afcb 5dbb e04f 89bd 24e8 9f3c b349 9c3d
00000030: 5358 4f3d f09e 52bc 3d3d 9d3d 3e5f b53d
00000040: 44b0 c4ba 846a d5bc d42c b83d cce7 a53d
00000050: a759 5fbb dc9d 023d dc4b eebb 90cd 36bd
00000060: 2b2d 87bd ba3e 653b d943 083d c797 463d
00000070: 4847 293d dac5 483d 5dc7 803d 8e20 60bc
00000080: 4b59 dbbc 0af5 44bb 897f aabc 45e2 adbd
00000090: 5ccb b5bb 4450 06bc 1be2 25bc 3257 373d
000000a0: 5e64 253c a0a2 813d 3ff2 abbd 8942 83bc
000000b0: bc7e a2bc a29f e1bb ba44 a9bd 74da 7b3c
000000c0: 519b 723d 17b4 9bbc fa84 a2bc 9ddb 503d
000000d0: 0542 a73d 5e2b 7dbd bcdb 89bd ec03 3cba
000000e0: e025 503d d111 f33c a2ff 7a3d 499f 083d
000000f0: 23f2 713c b8ba ebbc 90f1 d1bc 5696 ff3b
00000100: 8dc1 80bd ee62 7a3d 9d9b 5dbc d960 94bd
00000110: 69a9 60bd 02b8 183d 56ec 043c 7fed 5f3d
00000120: 5553 f43c 7da4 153c d3de 9a3b 3d25 b1bd
00000130: 6541 e43a e0b4 6c3d 3acf 133d d2a7 0dbd
00000140: c70f 07bc 9eb3 08bd 8483 b2bb 7b88 a73c
00000150: cae4 1abd e05d 25bc ea66 90bb b81e 4e3d
00000160: 5aa8 9c3d 7bbd 4dbc cd31 903d d4af 783d
00000170: 2712 35bb 51c9 22bc 6533 e7bc bb2e 193d
00000180: 7b91 fbbc f225 4fbd 968c 9cbd a196 733d
00000190: fd34 bebc 86d2 90bd 20d6 193d 092d b83c
000001a0: 560c 9abd ac1c a9bd 7fa9 a5bd 153b 673d
000001b0: e6d8 1cbc bf7a 1ebd ce14 58bd b860 46bd
000001c0: 66ff 123d 8b57 4dbd cc12 71bd 4349 fd3c
000001d0: a4a8 b83d a66b 74bd 2c55 a93d 838d eabc
000001e0: cc8e 1c3d 2ff4 923d 27e7 e1bc 2381 22bd
000001f0: e33e 013c 7e6c c63b 4e74 6b3d 4c29 54bd
00000200: 99f3 a8bd 0296 f03a 497f 81bd 9c7b 2d3d
00000210: b5c3 dc3c 310c 02bd ad81 ee3c b09c 313a
00000220: c6fc 9f3c 214d 2f3d 6a50 8c3c f2af adbd
00000230: 3ad0 88bd d68f 043d 03c7 0a3d 0d9f aebd
00000240: f690 af3c 0701 67bc 538c 9fbd 973a 67bb
00000250: ded6 57bc a01e 1f3d 2f42 443d 4e70 c73c
00000260: 043b 88bd 448c d9bc 84e4 803d 6277 ac3d
00000270: 9669 a7bd 403d 89bd 9703 693c 9af5 1fbd
00000280: 1e1f 07bd 6801 99bc ecb8 0bbd 6a15 ccbc
00000290: 96d0 9bb9 ec31 aa3c df6d a6bd 7f7d 2c3c
000002a0: cefe e1bc 6c5a 733c 257e 09bd dd38 b03d
000002b0: 8882 a0bd 2e6e 0e3d 8d91 0b3c 59c2 4d3d
000002c0: 0902 b5bd 4cf4 afbb 2ef7 973d d367 543d
000002d0: dabd 0c3c d4cb 29bc db36 a33d b899 eebc
000002e0: dca9 a1bd 4e47 303c ea1f b13d a8c7 d3bc
000002f0: a106 2bbd 09d4 523c 6b43 6dbc 43f4 233d
00000300: 3b57 9ebd b52a 873d d9e2 2ebc c8a6 7f3d
00000310: cd00 8cbd f28a 1fbd eae7 9ebd 68e6 38bd
00000320: de5d c1bc 63cc 4fbd dc00 76bc 7e3f b33d
00000330: 5f92 743d 0e2b 033d c031 a53d 5334 4ebd
00000340: a4f4 a7bc e130 1c3d cc0a f5bc 2f73 663d
00000350: bedd c23b 4138 9a3d bdeb a53d 5d7e c13c
00000360: b782 98bd e0f4 17bd b137 66bb e706 a5bd
00000370: a3a3 0f3d d2f9 71bc 9849 e73c dd41 4c3d
00000380: af12 963d ced5 6fbd 2fd2 69bc 982c 22bd
00000390: 770f b8bc fff8 2d3d 533d 863c 7735 c63c
000003a0: f147 063d c179 90bd f7d0 343d 2d40 ad3d
000003b0: 38f1 0fbd 4bd0 ec3c 270a 233d 4b2e 8f3d
000003c0: 8299 a43d 8f1c 9dbd 570f 9abc c2ef 90bd
000003d0: a2ee b73d 9f8b af3d bcfe 77bd 267b a33c
000003e0: 8e63 9b3d 620c cbbc 3a41 a1bd 322a 7cbd
000003f0: 5de8 7f3d 622e 6d3d 3ec5 75bd 2a28 43bd

seq.2.bias f4 [2]
0.045382224 0.046498805
00000000: b6e2 393d 8875 3e3d
